decoder_config:
  layers:
  - class_name: InputLayer
    config:
      batch_input_shape: !!python/tuple
      - null
      - 512
      dtype: float32
      name: dense_3_input
      ragged: false
      sparse: false
  - class_name: Dense
    config:
      activation: relu
      activity_regularizer: null
      bias_constraint: null
      bias_initializer:
        class_name: Zeros
        config: {}
      bias_regularizer: null
      dtype: float32
      kernel_constraint: null
      kernel_initializer:
        class_name: GlorotUniform
        config:
          seed: null
      kernel_regularizer: null
      name: dense_3
      trainable: true
      units: 512
      use_bias: true
  - class_name: Dense
    config:
      activation: relu
      activity_regularizer: null
      bias_constraint: null
      bias_initializer:
        class_name: Zeros
        config: {}
      bias_regularizer: null
      dtype: float32
      kernel_constraint: null
      kernel_initializer:
        class_name: GlorotUniform
        config:
          seed: null
      kernel_regularizer: null
      name: dense_4
      trainable: true
      units: 1024
      use_bias: true
  - class_name: Dense
    config:
      activation: linear
      activity_regularizer: null
      bias_constraint: null
      bias_initializer:
        class_name: Zeros
        config: {}
      bias_regularizer: null
      dtype: float32
      kernel_constraint: null
      kernel_initializer:
        class_name: GlorotUniform
        config:
          seed: null
      kernel_regularizer:
        class_name: L1
        config:
          l1: 10.0
      name: dense_5
      trainable: true
      units: 4643
      use_bias: true
  name: decoder
encoder_config:
  layers:
  - class_name: Conv2D
    config: pretrained Conv Layer
  - class_name: PrimaryCaps2D
    config:
      activation: sigmoid
      capsule_dim: !!python/object/apply:tensorflow.python.training.tracking.data_structures.ListWrapper
      - - 4
        - 4
      dtype: float32
      kernel_initializer: !!python/object:tensorflow.python.keras.initializers.initializers_v2.GlorotUniform
        _random_generator: !!python/object:tensorflow.python.ops.init_ops_v2._RandomGenerator
          seed: null
        distribution: uniform
        mode: fan_avg
        scale: 1.0
        seed: null
      kernel_size: !!python/tuple
      - 9
      - 9
      name: primary_caps2d_1
      num_channels: 32
      padding: valid
      strides: !!python/tuple
      - 2
      - 2
      trainable: true
  - class_name: ConvCaps2D
    config:
      activation: sigmoid
      capsule_dim: !!python/object/apply:tensorflow.python.training.tracking.data_structures.ListWrapper
      - - 4
        - 4
      dtype: float32
      kernel_initializer: !!python/object:tensorflow.python.keras.initializers.initializers_v2.HeNormal
        _random_generator: !!python/object:tensorflow.python.ops.init_ops_v2._RandomGenerator
          seed: null
        distribution: truncated_normal
        mode: fan_in
        scale: 2.0
        seed: null
      kernel_size: !!python/tuple
      - 3
      - 3
      name: conv_caps2d
      num_channels: 32
      padding: same
      routing: EM
      stride: !!python/tuple
      - 2
      - 2
      trainable: true
  - class_name: ConvCaps2D
    config:
      activation: sigmoid
      capsule_dim: !!python/object/apply:tensorflow.python.training.tracking.data_structures.ListWrapper
      - - 4
        - 4
      dtype: float32
      kernel_initializer: !!python/object:tensorflow.python.keras.initializers.initializers_v2.HeNormal
        _random_generator: !!python/object:tensorflow.python.ops.init_ops_v2._RandomGenerator
          seed: null
        distribution: truncated_normal
        mode: fan_in
        scale: 2.0
        seed: null
      kernel_size: !!python/tuple
      - 3
      - 3
      name: conv_caps2d_1
      num_channels: 32
      padding: same
      routing: EM
      stride: !!python/tuple
      - 2
      - 2
      trainable: true
  - class_name: DenseCaps
    config:
      activation: squash
      capsule_dim: !!python/object/apply:tensorflow.python.training.tracking.data_structures.ListWrapper
      - - 4
        - 4
      dtype: float32
      initializer: !!python/object:tensorflow.python.keras.initializers.initializers_v2.RandomNormal
        _random_generator: !!python/object:tensorflow.python.ops.init_ops_v2._RandomGenerator
          seed: null
        mean: 0.0
        seed: null
        stddev: 0.05
      name: dense_caps
      num_capsules: 32
      routing: EM
      trainable: true
