decoder_config:
  layers:
  - class_name: InputLayer
    config:
      batch_input_shape: !!python/tuple
      - null
      - 32
      dtype: float32
      name: dense_input
      ragged: false
      sparse: false
  - class_name: Dense
    config:
      activation: relu
      activity_regularizer: null
      bias_constraint: null
      bias_initializer:
        class_name: Zeros
        config: {}
      bias_regularizer: null
      dtype: float32
      kernel_constraint: null
      kernel_initializer:
        class_name: GlorotUniform
        config:
          seed: null
      kernel_regularizer: null
      name: dense
      trainable: true
      units: 512
      use_bias: true
  - class_name: Dense
    config:
      activation: relu
      activity_regularizer: null
      bias_constraint: null
      bias_initializer:
        class_name: Zeros
        config: {}
      bias_regularizer: null
      dtype: float32
      kernel_constraint: null
      kernel_initializer:
        class_name: GlorotUniform
        config:
          seed: null
      kernel_regularizer: null
      name: dense_1
      trainable: true
      units: 1024
      use_bias: true
  - class_name: Dense
    config:
      activation: tanh
      activity_regularizer: null
      bias_constraint: null
      bias_initializer:
        class_name: Zeros
        config: {}
      bias_regularizer: null
      dtype: float32
      kernel_constraint: null
      kernel_initializer:
        class_name: GlorotUniform
        config:
          seed: null
      kernel_regularizer: null
      name: dense_2
      trainable: true
      units: 3092
      use_bias: true
  name: decoder
encoder_config:
  layers:
  - class_name: Conv2D
    config:
      activation: relu
      activity_regularizer: null
      bias_constraint: null
      bias_initializer:
        class_name: Zeros
        config: {}
      bias_regularizer: null
      data_format: channels_last
      dilation_rate: !!python/tuple
      - 1
      - 1
      dtype: float32
      filters: 256
      groups: 1
      kernel_constraint: null
      kernel_initializer:
        class_name: GlorotUniform
        config:
          seed: null
      kernel_regularizer: null
      kernel_size: !!python/tuple
      - 9
      - 9
      name: conv2d
      padding: valid
      strides: !!python/tuple
      - 1
      - 1
      trainable: true
      use_bias: true
  - class_name: PrimaryCaps2D
    config:
      activation: squash
      capsule_dim: !!python/object/apply:tensorflow.python.training.tracking.data_structures.ListWrapper
      - - 8
        - 1
      dtype: float32
      kernel_initializer: !!python/object:keras.initializers.initializers_v2.GlorotUniform
        _random_generator: !!python/object:keras.backend.RandomGenerator
          _built: true
          _force_generator: false
          _generator: null
          _seed: null
        distribution: uniform
        mode: fan_avg
        scale: 1.0
        seed: null
      kernel_size: !!python/tuple
      - 9
      - 9
      name: primary_caps2d
      num_channels: 32
      padding: valid
      strides: !!python/tuple
      - 2
      - 2
      trainable: true
  - class_name: DenseCaps
    config:
      activation: norm
      capsule_dim: !!python/object/apply:tensorflow.python.training.tracking.data_structures.ListWrapper
      - - 16
        - 1
      dtype: float32
      initializer: !!python/object:keras.initializers.initializers_v2.RandomNormal
        _random_generator: !!python/object:keras.backend.RandomGenerator
          _built: true
          _force_generator: false
          _generator: null
          _seed: null
        mean: 0.0
        seed: null
        stddev: 0.05
      name: class_capsules
      num_capsules: 2
      routing: dynamic
      trainable: true
